assets/models/nn.onnx (onnx, 5335 bytes, 5 tensors)

functional_7_1/dense_23_1/Cast/ReadVariableOp:0 f4 [16, 1]
0.1763477 0.53591865 0.3926851 -0.78819317 -0.4196921 0.18146887 0.65763026 0.43816078
-0.3190604 0.38026366 -0.2378589 -0.22901244 -0.4337396 0.28051627 0.57276124 0.57218677
00000000: 7e94 343e f731 093f 050e c93e 07c7 49bf
00000010: e2e1 d6be fad2 393e 755a 283f 9c56 e03e
00000020: e25b a3be ebb1 c23e 4991 73be 3d82 6abe
00000030: 1e13 debe d49f 8f3e 7ba0 123f d57a 123f

functional_7_1/dense_22_1/Cast/ReadVariableOp:0 f4 [32, 16]
0.270913 0.18234716 -0.29706642 -0.1486542 -0.019408772 -0.48392117 0.33005375 0.33423722
0.19023716 -0.022704592 -0.13687897 -0.22046974 0.15707514 0.23957878 0.2994017 -0.0091508925
-0.26618364 -0.30474526 0.13008484 0.20368448 -0.3384976 -0.27083316 -0.08408927 -0.29016542
0.28856564 0.19634598 -0.19863683 0.0079625975 -0.10155834 -0.16782275 0.2522826 0.02123915
0.04166296 0.14133018 0.26857513 -0.19492574 0.214167 0.07234962 0.24500868 0.0631463
-0.06328543 0.48789984 -0.32768157 -0.0038350257 -0.03290496 0.009445572 0.3676673 0.2954705
-0.3925964 -0.05348657 0.25098693 0.4294663 -0.3047605 -0.19187602 -0.45338172 -0.35662672
-0.0041259523 0.24395736 0.52872086 0.34761035 0.28490138 -0.23368376 0.19546027 -0.4582077
0.1597717 0.2707935 0.36381778 0.36716834 -0.04088275 0.27998117 -0.30394998 0.12603079
0.20160232 -0.18208517 0.31886622 0.22476515 -0.15402569 0.16752468 -0.20256117 -0.26192692
0.019886987 0.24229881 -0.17238556 -0.38354543 0.07914192 -0.139946 -0.14890006 0.15805471
0.18785167 -0.23029879 0.031574395 -0.14518315 -0.14437272 0.029715847 -0.2086658 0.2303763
-0.1503572 0.083808005 -0.12680717 0.26841122 -0.0060180104 -0.32259426 0.06729162 -0.15380093
0.40642676 0.20022392 0.035621244 0.3114068 0.2080832 -0.29909483 -0.056651372 0.20198902
0.22355787 -0.08660062 0.14424972 0.2866029 -0.493258 0.041242782 -0.21374452 0.24782148
0.35226408 -0.225811 0.03173197 0.4398892 0.1280414 -0.12118125 0.17362599 0.28644496
-0.16242415 0.10511308 0.049243063 0.17874163 0.07883911 0.09109198 0.114486754 -0.27668175
0.103598855 0.23321615 -0.24968173 0.014252161 -0.067195155 0.28264368 0.36567473 0.37671685
-0.36990955 -0.061814256 -0.17900318 -0.2931839 -0.2574977 -0.1161097 0.13449979 -0.045157388
0.24821173 -0.11943222 -0.021071613 0.18351263 0.3002247 0.34233227 -0.23678765 0.3921913
0.22862117 -0.028959922 0.07516155 -0.23052323 -0.23464657 0.22534826 -0.041213565 -0.38551828
0.2591602 -0.114009775 -0.10107843 -0.08208976 -0.034717917 0.32756096 0.32744175 0.06525154
-0.3095788 -0.13542281 0.2030089 -0.14691384 0.1553748 0.38924882 0.01516123 -0.3456726
0.15002912 0.21478967 -0.17320113 0.21831247 0.29101026 0.17124201 -0.18674628 -0.21621422
-0.34363157 0.22825176 -0.048155293 0.42360154 -0.05937515 0.0006900611 -0.29594243 0.19879264
-0.20099723 -0.30049023 0.103441425 0.19771379 0.31641003 -0.29657066 -0.3196059 0.16946857
-0.118484855 -0.23059788 -0.3245948 0.34894776 0.093012676 -0.29419023 -0.08611732 -0.09434474
0.026253043 0.050369512 -0.06091747 0.47768652 0.09846993 -0.058448635 -0.27167308 -0.23496263
-0.30132172 -0.07013805 0.39949557 0.1988775 -0.27479067 0.0281658 0.17201303 -0.14882396
0.14699131 0.29852694 -0.1789608 0.11281537 0.027364518 -0.03725879 0.22771548 0.3066656
-0.2486146 -0.19055136 0.16244207 -0.39151344 -0.21148662 0.06462412 0.15181403 -0.15717277
-0.20408426 0.045349102 0.15483537 -0.24273099 0.2463366 0.35684258 0.0017020563 0.19006783
00000000: 1cb5 8a3e 37b9 3a3e 1719 98be ce38 18be
00000010: 25ff 9ebc 84c4 f7be cefc a83e 2421 ab3e
00000020: 88cd 423e fbfe b9bc 002a 0cbe d2c2 61be
00000030: 4ed8 203e 2454 753e 2e4b 993e a0ed 15bc
00000040: 3949 88be 9207 9cbe f634 053e aa92 503e
00000050: 8f4f adbe a5aa 8abe ff36 acbd 9090 94be
00000060: e0be 933e ec0e 493e 7467 4bbe 8e75 023c
00000070: d2fd cfbd bad9 2bbe 2f2b 813e bafd ad3c
00000080: c8a6 2a3d dcb8 103e ae82 893e 9d9a 47be
00000090: 984e 5b3e 0a2c 943d 8ee3 7a3e d952 813d
000000a0: cb9b 81bd 02ce f93e e1c5 a7be 0e55 7bbb
000000b0: 5ac7 06bd 9ac1 1a3c e33e bc3e e947 973e
000000c0: 6502 c9be bc14 5bbd 5c81 803e 02e3 db3e
000000d0: 9109 9cbe 267b 44be a621 e8be c797 b6be
000000e0: ff32 87bb f5cf 793e 405a 073f fcf9 b13e
000000f0: 98de 913e cc4a 6fbe bd26 483e 339a eabe
00000100: 319b 233e 72a5 8a3e 5346 ba3e 7dfd bb3e
00000110: ac74 27bd b159 8f3e 559f 9bbe 370e 013e
00000120: d770 4e3e 8974 3abe 6f42 a33e d628 663e
00000130: e9b8 1dbe 978b 2b3e 326c 4fbe 491b 86be
00000140: 09ea a23c 2e1d 783e d785 30be 1160 c4be
00000150: 2915 a23d 014e 0fbe 4279 18be 18d9 213e
00000160: 305c 403e 72d3 6bbe 2754 013d e4aa 14be
00000170: 71d6 13be a66e f33c 7dac 55be c4e7 6b3e
00000180: 3df7 19be 88a3 ab3d bdd9 01be 326d 893e
00000190: bb32 c5bb 132b a5be 30d0 893d fe7d 1dbe
000001a0: 2b17 d03e 8007 4d3e 95e7 113d b670 9f3e
000001b0: c313 553e f522 99be 450b 68bd 36d6 4e3e
000001c0: 5bec 643e aa5b b1bd 33b6 133e 9ebd 923e
000001d0: 508c fcbe 31ee 283d d8df 5abe eac4 7d3e
000001e0: f55b b43e 003b 67be 62f9 013d 2839 e13e
000001f0: 491d 033e e02d f8bd 03cb 313e eaa8 923e
00000200: 8452 26be 8745 d73d 18b3 493d 0c08 373e
00000210: 6676 a13d 6f8e ba3d 0878 ea3d 3ba9 8dbe
00000220: a32b d43d 37d0 6e3e 91ac 7fbe e581 693c
00000230: 9d9d 89bd acb6 903e b839 bb3e 08e1 c03e
00000240: c964 bdbe f230 7dbd 9c4c 37be 331c 96be
00000250: bdd6 83be ecca edbd 50ba 093e f4f6 38bd
00000260: 372b 7e3e e198 f4bd 609e acbc bcea 3b3e
00000270: 0db7 993e 2d46 af3e 7678 72be 4ccd c83e
00000280: ab1b 6a3e 5c3d edbc 4cee 993d 480e 6cbe
00000290: 3147 70be b2c1 663e 8ecf 28bd a762 c5be
000002a0: a5b0 843e f57d e9bd 3502 cfbd ad1e a8bd
000002b0: 6034 0ebd 12b6 a73e 72a6 a73e 99a2 853d
000002c0: 1d81 9ebe 47ac 0abe 91e1 4f3e 9570 16be
000002d0: 921a 1f3e 9f4b c73e cf66 783c 00fc b0be
000002e0: 3ca1 193e d3f1 5b3e a35b 31be 4e8d 5f3e
000002f0: 4cff 943e 115a 2f3e 6b3a 3fbe 4367 5dbe
00000300: 7af0 afbe d4ba 693e 7c3e 45bd 4de2 d83e
00000310: 5b33 73bd 37e5 343a c485 97be 4c90 4b3e
00000320: 38d2 4dbe dbd9 99be 19d9 d33d 7c75 4a3e
00000330: 7f00 a23e 1cd8 97be 62a3 a3be 2b89 2d3e
00000340: 30a8 f2bd da21 6cbe 4a31 a6be 48a9 b23e
00000350: 6e7d be3d 1aa0 96be 475e b0bd d137 c1bd
00000360: 9f10 d73c 4350 4e3d 9984 79bd 5493 f43e
00000370: 9aaa c93d d667 6fbd bc18 8bbe 0b9a 70be
00000380: d746 9abe 8aa4 8fbd af8a cc3e 8ba6 4b3e
00000390: 5db1 8cbe f7bb e63c 2f24 303e 4f65 18be
000003a0: e484 163e 86d8 983e 8041 37be bf0b e73d
000003b0: 8e2b e03c ac9c 18bd 3f2e 693e 4603 9d3e
000003c0: d394 7ebe e51f 43be 3757 263e 7374 c8be
000003d0: f38f 58be a759 843d 2375 1b3e e6f1 20be
000003e0: 77fb 50be fbbf 393d 2a8d 1e3e 798e 78be
000003f0: a93f 7c3e 12b4 b63e 8817 df3a 24a1 423e

functional_7_1/dense_22_1/Add/ReadVariableOp:0 f4 [16]
-0.031238986 -0.08219768 -0.015232573 0.15405437 0.055991072 -0.05604532 -0.041321937 -0.013830535
0.14817588 -0.09127072 0.21572015 0.17626129 0.16845986 -0.10912002 -0.09663441 -0.083876945
00000000: e7e8 ffbc 4257 a8bd 0b92 79bc 6ec0 1d3e
00000010: e556 653d c78f 65bd 3141 29bd 7899 62bc
00000020: 6bbb 173e 25ec babd bee5 5c3e d77d 343e
00000030: be80 2c3e 517a dfbd 43e8 c5bd adc7 abbd

functional_7_1/dense_21_1/Cast/ReadVariableOp:0 f4 [10, 32]
0.25645968 -0.18488644 0.093996756 -0.17848463 0.19427282 -0.29581547 0.34029767 -0.2736932
0.2310651 -0.0050270823 -0.21936868 -0.25775248 0.08379876 0.25253445 -0.0816587 -0.05811207
0.12322815 -0.09098487 0.055180483 0.33491704 -0.30947077 0.13721481 -0.19573922 -0.23794478
0.2274195 -0.36517453 -0.48314083 0.121914275 -0.15311624 -0.21031307 0.2754572 0.14826018
0.20653863 -0.30290458 0.02996283 -0.07727238 -0.11004918 -0.27937043 0.10486719 0.0703561
-0.026258735 0.36693797 0.010996336 -0.30715677 -0.086643696 0.20233351 -0.16414607 -0.14175974
0.39654678 -0.41153163 -0.102098964 -0.3067004 -0.112155944 0.0475901 0.06215706 0.02258497
-0.17325553 -0.25549474 -0.15990733 0.3796323 0.23435484 0.3561361 0.19042164 0.30119562
0.4211468 0.026131295 -0.4912782 -0.023056189 -0.20240499 0.07313392 -0.21739654 0.2389071
-0.108126074 -0.15974836 -0.40247092 -0.3292912 -0.12286721 0.19207244 -0.114698045 0.11196855
-0.24334264 -0.13552369 0.0052158013 -0.105358265 0.095636316 0.3592164 0.18174674 0.269169
-0.15299334 0.42602006 -0.17743778 0.103524536 -0.042719323 0.31384736 -0.30561358 0.08131442
0.05556039 -0.13299407 0.12570618 -0.22875631 0.20155528 0.17888954 -0.0365822 -0.45640537
0.40177265 -0.0012653171 0.088595726 -0.082596555 0.05424485 0.11803082 0.23111975 0.30742335
-0.21653599 -0.39097232 0.012761458 0.08450033 0.12028822 -0.32588995 -0.12824614 -0.016195554
0.39937976 0.23291938 0.032627955 0.29279256 0.4173107 0.17411354 -0.40609422 -0.016408592
0.025862793 0.2778265 -0.14681311 -0.40170893 -0.4028944 0.16688105 -0.12548696 0.26462355
0.36833864 -0.26182714 0.079734944 0.15856609 -0.3738158 0.14757632 0.17748845 0.03212979
-0.26671618 0.1402284 0.31701472 0.3977741 0.16784124 0.22293311 -0.47937644 0.4506455
0.31453508 0.22989513 0.08744785 -0.19311528 -0.2647948 0.034268834 -0.43373272 0.097766064
-0.32250988 -0.05464879 0.41276377 0.07268913 0.103902206 -0.29827735 -0.045515295 0.12963401
0.024240818 0.2518437 0.27622798 0.19966595 -0.20788562 -0.4473248 0.30789432 0.36314064
0.19502321 -0.48178214 0.29839492 0.4368347 0.10218388 0.27154535 0.112070516 -0.08889259
0.30106407 -0.36683604 0.36179724 -0.16290206 -0.004300345 -0.11343285 -0.22176981 -0.23424332
0.026830185 -0.06542381 -0.29387918 0.3420021 0.4105828 -0.23267817 0.23187105 0.37004837
0.215809 -0.0936176 0.22126356 0.15820532 0.0069137504 0.4791086 -0.18916461 -0.13987713
-0.2230883 -0.013270357 0.36490345 -0.30994245 -0.24223627 0.2957632 0.33016768 -0.341301
-0.26924294 -0.21680039 0.41320646 0.16092433 0.118033744 0.053948924 -0.040219195 -0.14151126
-0.041119948 -0.39322346 0.28628656 -0.049671505 0.0059115826 0.33717173 -0.12907164 0.29122913
0.19245861 0.096096836 -0.22589885 0.009804796 0.30635035 0.07120734 0.10623881 0.44555312
-0.49475497 -0.22437076 -0.19295657 -0.23751876 0.41697913 0.1137421 0.06811302 -0.0047186427
-0.052373376 0.101529956 -0.14674015 0.2815413 0.2080987 -0.41222742 -0.16989106 -0.07917091
00000000: af4e 833e df52 3dbe 5f81 c03d adc4 36be
00000010: 74ef 463e 2075 97be 7f3b ae3e 8421 8cbe
00000020: 549c 6c3e 39ba a4bb 2fa2 60be 22f8 83be
00000030: af9e ab3d 324c 813e ad3c a7bd ec06 6ebd
00000040: 0a5f fc3d 4756 babd ee04 623d 3f7a ab3e
00000050: f472 9ebe 0a82 0c3e dd6f 48be cca7 73be
00000060: a8e0 683e 28f8 babe 3c5e f7be 31ae f93d
00000070: 81ca 1cbe 4f5c 57be ba08 8d3e 84d1 173e
00000080: dd7e 533e 4f16 9bbe 9c74 f53c fb40 9ebd
00000090: 7761 e1bd a409 8fbe 9cc4 d63d dc16 903d
000000a0: 8f1c d7bc 4bdf bb3e fa29 343c a743 9dbe
000000b0: 4072 b1bd 8430 4f3e e815 28be 7729 11be
000000c0: 2e08 cb3e 46b4 d2be 4319 d1bd d607 9dbe
000000d0: 04b2 e5bd d6ed 423d 6798 7e3d 1d04 b93c
000000e0: e669 31be 35d0 82be bfbe 23be 2a5f c23e
000000f0: b7fa 6f3e 7957 b63e e4fd 423e 5036 9a3e
00000100: 8ea0 d73e 4c11 d63c d188 fbbe 55e0 bcbc
00000110: 4143 4fbe 3dc7 953d 339d 5ebe 10a4 743e
00000120: 3471 ddbd 1395 23be ab10 cebe db98 a8be
00000130: cea1 fbbd a3ae 443e cfe6 eabd c44f e53d
00000140: d02e 79be b9c6 0abe 50e9 aa3b 13c6 d7bd
00000150: f9dc c33d 36eb b73e d11b 3a3e 85d0 893e
00000160: 49aa 1cbe 4d1f da3e 40b2 35be ac04 d43d
00000170: 75fa 2ebd 9ab0 a03e 6279 9cbe 2d88 a63d
00000180: 4b93 633d 992f 08be 1fb9 003e 183f 6abe
00000190: 8264 4e3e d22e 373e 38d7 15bd f7ad e9be
000001a0: 25b5 cd3e ffd8 a5ba ad71 b53d 6228 a9bd
000001b0: d92f 5e3d 24ba f13d a8aa 6c3e 9866 9d3e
000001c0: 9cbb 5dbe 862d c8be 6f15 513c 820e ad3d
000001d0: ac59 f63d 0cdb a6be f552 03be 8aac 84bc
000001e0: 817b cc3e 6b82 6e3e e4a4 053d e8e8 953e
000001f0: c0a9 d53e d24a 323e 95eb cfbe 506b 86bc
00000200: 35de d33c 463f 8e3e 2d56 16be cbac cdbe
00000210: 2d48 cebe dee2 2a3e a77f 00be bd7c 873e
00000220: e296 bc3e 350e 86be 134c a33d 265f 223e
00000230: c964 bfbe 3f1e 173e 88bf 353e 879a 033d
00000240: 068f 88be 0998 0f3e c14f a23e 0ca9 cb3e
00000250: 93de 2b3e 9448 643e d470 f5be 02bb e63e
00000260: be0a a13e a169 6b3e dc17 b33d 03c0 45be
00000270: 2f93 87be 7a5d 0c3d 3712 debe 9339 c83d
00000280: 0420 a5be 69d7 5fbd c655 d33e 0ade 943d
00000290: aeca d43d cfb7 98be 3f6e 3abd c7be 043e
000002a0: ae94 c63c a8f1 803e c16d 8d3e 3b75 4c3e
000002b0: f8df 54be c207 e5be 53a4 9d3e 92ed b93e
000002c0: 2ab4 473e 26ac f6be 38c7 983e cca8 df3e
000002d0: c845 d13d fe07 8b3e 3a85 e53d 510d b6bd
000002e0: 1225 9a3e efd1 bbbe 7d3d b93e cccf 26be
000002f0: e9e9 8cbb 7b4f e8bd a017 63be 7bdd 6fbe
00000300: faca db3c ebfc 85bd 5577 96be e61a af3e
00000310: e937 d23e 3043 6ebe 9b6f 6d3e fb76 bd3e
00000320: 09fd 5c3e 96ba bfbd ea92 623e 9300 223e
00000330: be8c e23b b94d f53e 5eb4 41be f33b 0fbe
00000340: 4271 64be e96b 59bc a0d4 ba3e c7b0 9ebe
00000350: c90c 78be 466e 973e bd0b a93e 01bf aebe
00000360: 36da 89be ec00 5ebe cc8f d33e 59c9 243e
00000370: adbb f13d 8cf9 5c3d e2bc 24bd 54e8 10be
00000380: 646d 28bd 9654 c9be 2794 923e 5974 4bbd
00000390: f3b5 c13b c6a1 ac3e 5b2b 04be fc1b 953e
000003a0: df13 453e 6bce c43d 0752 67be 4ca4 203c
000003b0: f4d9 9c3e 27d5 913d bc93 d93d 8a1f e43e
000003c0: 8650 fdbe 73c1 65be 6896 45be 1e38 73be
000003d0: 4a7e d53e 9ef1 e83d d77e 8b3d d89e 9abb
000003e0: 7785 56bd f0ee cf3d 0d43 16be 2e26 903e
000003f0: d317 553e 790f d3be ecf7 2dbe 5c24 a2bd

functional_7_1/dense_21_1/Add/ReadVariableOp:0 f4 [32]
-0.07913889 0.08118491 -0.04813511 0.2076558 0.16455083 -0.014906389 0.19061266 0.17213055
-0.10270779 0.019626781 -0.08865743 0.132241 0.086226486 0.16081196 0.027003009 -0.12558942
0.14655146 0.17117386 -0.012398845 -0.06427579 -0.0690014 0.15425682 0.14721224 -0.01747432
0.016566342 -0.056782257 0.036527783 -0.035790704 -0.06172352 0.09005552 0.13400121 0.14601995
00000000: 9213 a2bd 4644 a63d 5229 45bd b9a3 543e
00000010: 0380 283e ed39 74bc f72f 433e fe42 303e
00000020: 7658 d2bd 58c8 a03c 0792 b5bd 2f6a 073e
00000030: 8397 b03d e4ab 243e 6a35 dd3c 839a 00be
00000040: 9611 163e 3348 2f3e 8624 4bbc 06a3 83bd
00000050: 9b50 8dbd 80f5 1d3e cebe 163e 4e26 8fbc
00000060: 23b6 873c 8394 68bd 289e 153d 4699 12bd
00000070: cdd1 7cbd 076f b83d 9d37 093e 4186 153e
